misc/mnist_net.pth (torch, 186651 bytes, 14 tensors)

conv1.weight f4 [6, 1, 5, 5]
0	0x3ea7e63d	0.32792845
1	0x3d2ae65a	0.041723587
2	0xbc400744	-0.011720482
3	0xbdb7b1c5	-0.08969454
4	0x3d9bb9a5	0.07603768
5	0xbb787d02	-0.0037916307
6	0x3d8983ab	0.06714567
7	0x3d1e842a	0.03870026
8	0xbd5e93fe	-0.054340355
9	0x3d08d516	0.03340634
10	0xbe01550b	-0.12630098
11	0xbd6f5606	-0.058431648
12	0xbce41e5f	-0.027846513
13	0xbdb668b6	-0.08906691
14	0xbcf4e30d	-0.029893422
15	0xbdda70bc	-0.106660336
16	0xbe96e534	-0.29471743
17	0xbe8bff11	-0.27343038
18	0xbe391d31	-0.18077542
19	0xbe0f01fd	-0.13965602
20	0x3da582e0	0.08081603
21	0xbbc465a2	-0.005993561
22	0x3d4a9a4d	0.04946356
23	0xbe019098	-0.12652814
24	0xbd88e2d7	-0.06683891
25	0x3de1d35f	0.11026644
26	0xbd5fdc20	-0.054653287
27	0xbedb9e74	-0.42894328
28	0xbea528e7	-0.3225777
29	0xbda5b004	-0.08090213
30	0x3e7167dd	0.23574777
31	0x3e9751b6	0.29554528
32	0xbe4be9ac	-0.19913357
33	0xbdf45e9a	-0.11932106
34	0x3b9e5b06	0.004832628
35	0x3e11b48b	0.14229028
36	0xbc3fe047	-0.011711187
37	0x3e896993	0.2683836
38	0x3ea66fae	0.3250708
39	0x3dd05521	0.10172487
40	0x3e3fdb12	0.18735912
41	0x3d3a8383	0.045535576
42	0xbd3f6ceb	-0.04673473
43	0x3e5d2102	0.21594623
44	0xbe31b889	-0.17355551
45	0x3c80d826	0.015728068
46	0xbd292a2d	-0.041299988
47	0xbdb2b703	-0.08726313
48	0xbdd843ba	-0.10559793
49	0xbd47999b	-0.048730474
50	0x3e16255d	0.1466269
51	0xbc64361c	-0.013928916
52	0xbc3a4100	-0.011368036
53	0xbe52f076	-0.20599541
54	0x3c705c19	0.014670395
55	0xbd56120f	-0.052263316
56	0xbc890c2d	-0.016729439
57	0x3de0ec8b	0.10982617
58	0x3e0f11dc	0.13971657
59	0x3dc892e7	0.097936444
60	0xbe4eebc8	-0.20207131
61	0xbd4e76ec	-0.05040638
62	0xbdf0bd4a	-0.11754854
63	0x3b9eeec0	0.0048502386
64	0x3e14d8a7	0.14535771
65	0xbe14a6f2	-0.1451681
66	0xbe5f9069	-0.21832432
67	0xbe4f328f	-0.2023413
68	0xbe4249f5	-0.18973525
69	0xbe9c0c10	-0.30477953
70	0x3e762cd6	0.24040541
71	0x3d659a1d	0.056055177
72	0x3dd4da27	0.10393172
73	0xbdb15fcc	-0.0866085
74	0xbde939b6	-0.113879606
75	0x3ddd40fc	0.108034104
76	0x3ce1eefe	0.02757978
77	0xbd5ebca2	-0.054379113
78	0xbeb1c6ba	-0.3472193
79	0xbea81438	-0.32827926
80	0xbd60b2c8	-0.054858
81	0x3d4c73d3	0.049915146
82	0x3e1ddf15	0.1541713
83	0x3e2b94d8	0.16755998
84	0xbe25a42c	-0.16175908
85	0x3d297fa3	0.04138149
86	0x3e57c753	0.2107213
87	0x3e33076b	0.17483298
88	0x3eab6c8e	0.33481258
89	0x3cd650d9	0.026161598
90	0x3e2e15b1	0.17000462
91	0xbdd7f1f5	-0.105441965
92	0xbcf93b48	-0.030423775
93	0xbc3a3ebe	-0.011367498
94	0x3e6008d1	0.21878363
95	0x3d50bfb7	0.050964084
96	0xbe9f9c5d	-0.31173983
97	0xbe6b404d	-0.22973748
98	0xbd0dbcbe	-0.034603827
99	0x3e679a1d	0.22617383
100	0x3e886b5c	0.2664441
101	0x3e389e7a	0.18029204
102	0xbd2c1f48	-0.04202202
103	0xbea836a2	-0.32854182
104	0xbec63f59	-0.38720205
105	0x3dbf66a5	0.0934575
106	0x3c5bda63	0.013418767
107	0xbe05e961	-0.13077308
108	0xbebd7b3a	-0.37008077
109	0xbe64ad0e	-0.2233164
110	0x3dcb86d0	0.09937823
111	0xbcaa079e	-0.020755585
112	0xbe971bdf	-0.2951345
113	0xbeac518a	-0.3365596
114	0xbddcefea	-0.107879475
115	0x3dcb6657	0.09931629
116	0x3d5ad299	0.053423498
117	0xbdabfcde	-0.0839784
118	0xbe653c20	-0.22386217
119	0x3e541a19	0.2071308
120	0x3e0866e0	0.13320494
121	0x3d80c218	0.062870204
122	0x3e11f3c6	0.14253148
123	0x3be092c0	0.0068534315
124	0x3cc77063	0.024345582
125	0x3e19c065	0.15014799
126	0x3d43ee73	0.047834825
127	0x3d8b133f	0.0679078
128	0x3df16446	0.11786704
129	0x3e128e6e	0.14312145
130	0xbdb72c0b	-0.089439474
131	0xbcd28a7c	-0.0257008
132	0x3db53492	0.088479176
133	0x3e23a285	0.15979965
134	0x3e2f980b	0.17147844
135	0xbd7437c3	-0.05962349
136	0xbe641cdc	-0.22276634
137	0xbe62670a	-0.22109619
138	0xbe46718c	-0.19379252
139	0xbb3cb6ec	-0.0028795553
140	0x3ba81bab	0.0051302514
141	0xbe8bf29a	-0.27333528
142	0xbece409e	-0.40283674
143	0xbe9cbfe5	-0.30615154
144	0xbd9e1a36	-0.07719843
145	0x3db0945a	0.08622046
146	0x3e1fcef6	0.15606293
147	0x3da37671	0.07981575
148	0x3dbfe3d9	0.0936963
149	0x3e156bdd	0.14591928

conv1.bias f4 [6]
0	0xbe89580c	-0.26824987
1	0xbdbe1f6a	-0.092833355
2	0xbee2c372	-0.44289738
3	0xbd04a458	-0.032383293
4	0xbe588db7	-0.2114781
5	0xbe25b8a8	-0.16183722

conv2.weight f4 [6, 6, 2, 2]
0	0x3df52414	0.11969772
1	0xbd17983f	-0.037010428
2	0xbe352540	-0.17689991
3	0xbe59bf07	-0.21264277
4	0xbdbab4e5	-0.09116534
5	0xbe308055	-0.17236455
6	0xbdab0ed7	-0.0835244
7	0xbe8a81a0	-0.2705202
8	0x3d172d83	0.036908638
9	0x3e22a172	0.15881899
10	0xbdd6ea49	-0.10493905
11	0x3d3311a0	0.04371798
12	0x3d860eb8	0.06545776
13	0x3e51838c	0.20460337
14	0xbcc10aa7	-0.02356465
15	0xbc1055d9	-0.00880953
16	0xbe6810fc	-0.22662729
17	0xbef122fb	-0.47097
18	0xbc8df152	-0.017326985
19	0xbeadc3b3	-0.3393837
20	0x3e16f802	0.14743045
21	0x3e9606ff	0.29302213
22	0x3e7be054	0.24597293
23	0x3de3d763	0.11125066
24	0x3c4fd3f1	0.012684808
25	0xbe52499d	-0.20535894
26	0xbc9f859a	-0.019472886
27	0xbe7e9aae	-0.24863693
28	0x3e2a2c44	0.16618448
29	0x3d013cec	0.03155224
30	0x3e31d0a5	0.17364748
31	0x3e094b83	0.13407712
32	0xbeb1a5c2	-0.34696776
33	0xbe274cdc	-0.16337913
34	0xbc60a59b	-0.013711358
35	0x3e62be69	0.22142948
36	0xbd292f3e	-0.04130482
37	0xbe64175a	-0.22274533
38	0xbd46269f	-0.048376676
39	0xbe28da9f	-0.16489647
40	0x3ea78db2	0.32725292
41	0xbe4bba22	-0.19895223
42	0x3e07d9f2	0.13266733
43	0xbead1ceb	-0.33811125
44	0x3dbc89bf	0.092059605
45	0x3e07868c	0.1323492
46	0xbd7fa991	-0.06241757
47	0xbe562dff	-0.20915984
48	0xbe1a0197	-0.15039669
49	0xbdfd1bf6	-0.12358849
50	0x3dee59b6	0.11638205
51	0x3c7ba510	0.015359178
52	0x3e569330	0.20954585
53	0xbcdc2a4b	-0.026875636
54	0xbda105bf	-0.07862424
55	0xbde2344f	-0.11045133
56	0xbeac6b28	-0.33675504
57	0xbe144a45	-0.14481457
58	0x3e7452cb	0.23859708
59	0x3d8b7aa7	0.068105035
60	0x3e006e8e	0.12542173
61	0x3ddaa33b	0.10675665
62	0xbdc3c943	-0.09559872
63	0xbdcfe47f	-0.10151004
64	0xbdfb17c9	-0.12260396
65	0xbdb93b80	-0.09044552
66	0x3e0a36c1	0.1349745
67	0xbdc85c44	-0.09783223
68	0xbdddde75	-0.10833446
69	0xbeac93b8	-0.3370645
70	0x3d648d9c	0.05579911
71	0xbc21c470	-0.0098734945
72	0xbdc5df83	-0.09661772
73	0x3dddc67f	0.10828876
74	0x3c9a7c63	0.01885814
75	0x3d8debb1	0.0692972
76	0x3e36fc4c	0.17869681
77	0x3dec74cb	0.11545714
78	0x3e878ce8	0.2647469
79	0xbd1ce675	-0.03830572
80	0x3e3d022d	0.18457861
81	0x3e39cbbf	0.18144129
82	0x3d2b85c8	0.04187563
83	0x3d98ba2c	0.074573845
84	0x3dd8658f	0.10566246
85	0x3e6ba93e	0.2301378
86	0x3e86f59c	0.2635926
87	0x3e320bbc	0.17387289
88	0xbd4dba8a	-0.050226726
89	0x3cafb066	0.021446418
90	0xbeee0f0a	-0.4649585
91	0xbec24971	-0.37946656
92	0xbc5cce66	-0.013476944
93	0xbe3dddee	-0.1854169
94	0x3c92b8cc	0.017910384
95	0x3dee573f	0.116377346
96	0x3dd5d740	0.10441446
97	0x3e0b8f2c	0.13628834
98	0x3d2b7a42	0.04186464
99	0x3e071ddb	0.13194983
100	0xbe027373	-0.12739353
101	0xbd9ca763	-0.07649114
102	0xbdb0ff64	-0.08642462
103	0xbe992bc4	-0.29916203
104	0x3df04235	0.11731378
105	0x3db923ae	0.090400085
106	0x3dd26bb4	0.10274449
107	0x3e3f1b61	0.18662788
108	0xbd90f99d	-0.0707886
109	0xbce95ae4	-0.028485723
110	0xbe3c449b	-0.18385546
111	0xbdccae85	-0.099942245
112	0x3e020df6	0.12700638
113	0xbd86450d	-0.06556139
114	0x3d3caa58	0.04606089
115	0x3dbda790	0.09260476
116	0x3c89f85a	0.016842056
117	0x3de8a4e8	0.11359578
118	0x3db919bf	0.09038114
119	0x3dbbac59	0.09163732
120	0x3d83ad6c	0.06429562
121	0xbdea3bf3	-0.11437216
122	0x3d3d98db	0.046288352
123	0x3da34718	0.079725444
124	0xbc977991	-0.018490585
125	0x3c57607b	0.013145561
126	0xbe2220c1	-0.15832807
127	0x3dcf311b	0.10116788
128	0x3e0b187f	0.13583563
129	0xbe1bd725	-0.1521879
130	0x3e68c1d5	0.22730191
131	0x3d9a907e	0.07547091
132	0x3d5d1a38	0.053980082
133	0x3d939f22	0.072080866
134	0xbd32b8a5	-0.043633122
135	0xbce6b976	-0.028164607
136	0xbb8e86a5	-0.004349547
137	0xbe4c94c3	-0.19978623
138	0x3bb709a0	0.005585864
139	0xbe4626b8	-0.19350708
140	0x3dd6b027	0.10482817
141	0xbe1332dc	-0.1437487
142	0x3dd2cb83	0.10292723
143	0x3d97ed7a	0.07418342

conv2.bias f4 [6]
0	0x3d03d6ad	0.032187153
1	0xbbd4c729	-0.0064934683
2	0xbe657f26	-0.22411785
3	0xbd8c902a	-0.068634346
4	0xbc9106e7	-0.017703487
5	0xbe498ecf	-0.19683383

conv3.weight f4 [16, 6, 5, 5]
0	0xbe309e31	-0.17247845
1	0x3c8aafff	0.016929625
2	0x3e05ade8	0.13054621
3	0x3c52f183	0.012874964
4	0xbcd2d8b2	-0.025738094
5	0xbb49ad5c	-0.0030773496
6	0x3df53d39	0.11974568
7	0x3e24d263	0.16095881
8	0x3d7f4732	0.062323757
9	0xbe29ed33	-0.1659439
10	0x3d66e13a	0.056367137
11	0xbd241985	-0.0400634
12	0x3d51eb4a	0.05124978
13	0xbbea976a	-0.0071591632
14	0xbed65075	-0.4185826
15	0xbd9f6f06	-0.07784848
16	0xbe593142	-0.21210197
17	0x3ddc33dd	0.1075208
18	0x3e540b26	0.20707378
19	0xbdc5faa9	-0.0966695
20	0xbe1de932	-0.15420988
21	0xbe2438e5	-0.16037329
22	0x3df06b6f	0.11739241
23	0x3e0c94a4	0.13728577
24	0xbcca77ab	-0.024715265
25	0xbde320ea	-0.11090262
26	0xbe0ee5b9	-0.1395482
27	0xbe9604f3	-0.2930065
28	0xbdde5501	-0.10856057
29	0xbd8d1079	-0.068879075
30	0x3d84836d	0.0647038
31	0x3e42556e	0.18977901
32	0xbe805243	-0.2506276
33	0x3de15566	0.110026166
34	0x3e725fde	0.23669383
35	0xbd85fa77	-0.06541913
36	0xbd8a852a	-0.0676368
37	0x3ded0427	0.115730576
38	0x3d9b8c25	0.0759509
39	0x3e0c1bf0	0.13682532
40	0xbd85ad83	-0.06527235
41	0x3ea1ceb3	0.3160301
42	0x3d9c9059	0.0764472
43	0xbe977a78	-0.29585624
44	0x3e2cadb0	0.16863132
45	0x3db6538d	0.08902655
46	0x3d5910cf	0.052994546
47	0xbe7dc709	-0.24782957
48	0xbde35ea5	-0.111020364
49	0x3de7e01d	0.11322043
50	0x3e18557f	0.14876364
51	0x3e2e1401	0.16999818
52	0x3ded4d0b	0.115869604
53	0xbd50c8e3	-0.05097283
54	0xbc85c7bf	-0.016330598
55	0x3dc3ca64	0.09560087
56	0x3e693d00	0.22777176
57	0x3e740218	0.23828924
58	0xbd9bab98	-0.07601088
59	0xbeb9d197	-0.36292717
60	0x3ebe9420	0.37222385
61	0x3e1fe321	0.15613987
62	0x3d66364c	0.056204125
63	0xbed09ca3	-0.40744504
64	0xbe9c4981	-0.3052483
65	0x3d998bdf	0.074973814
66	0xbd9d2a98	-0.0767414
67	0xbe3cbf85	-0.18432434
68	0xbe547343	-0.20747094
69	0x3bd591b8	0.006517615
70	0x3da769d4	0.08174482
71	0x3ddd3b1c	0.1080229
72	0xbd41da6d	-0.047327448
73	0xbe07e3d1	-0.13270499
74	0x3d7be1ff	0.061494824
75	0x3da97391	0.08273996
76	0xbc91b0df	-0.017784534
77	0x3da57205	0.08078388
78	0xbd8652fc	-0.06558797
79	0x3cb914bf	0.0225929
80	0x3e2f6534	0.1712845
81	0x3d066fc1	0.03282142
82	0x3d56b2fb	0.052416783
83	0xbdbb196f	-0.091357104
84	0xbd665aaf	-0.056238826
85	0x3e7cfa74	0.24704915
86	0xbd6317ff	-0.055442806
87	0xbe21a1f6	-0.1578444
88	0xbd9b702b	-0.07589754
89	0xbd749b17	-0.059718218
90	0x3df39e5b	0.11895438
91	0x3cf4073a	0.029788602
92	0xbe78bb2b	-0.24290149
93	0xbe46894d	-0.19388314
94	0x3ce53e60	0.027983844
95	0x3e53faf4	0.207012
96	0x3ce4a8b5	0.027912477
97	0xbe8618d7	-0.26190826
98	0xbdf9ac2f	-0.121910445
99	0x3e05087c	0.12991518
100	0x3d702e41	0.05863786
101	0x3e59bfdc	0.21264595
102	0x3e1ca363	0.15296702
103	0x3ddbd6bb	0.10734316
104	0xbe017e1b	-0.12645762
105	0x3d7d9ec0	0.061918974
106	0x3e8c0cdd	0.27353564
107	0x3e4346a5	0.19069918
108	0xbe39155c	-0.18074554
109	0xbed88c22	-0.42294413
110	0x3e22db5b	0.1590399
111	0x3e519454	0.20466739
112	0xbd89aa23	-0.06721904
113	0xbef8c358	-0.48586535
114	0xbf1bd226	-0.60867536
115	0x3da1aa76	0.07893841
116	0xbcdd5ff2	-0.02702329
117	0xbc04eb8d	-0.0081128
118	0xbea1989f	-0.31561753
119	0xbee74d65	-0.45176235
120	0x3d33d954	0.043908432
121	0x3de69002	0.11257936
122	0x3db79a36	0.0896496
123	0xbd591b96	-0.053004824
124	0xbeb07484	-0.34463894
125	0x3b8fd318	0.004389178
126	0x3d9a8d3c	0.075464696
127	0x3e2968f7	0.16543947
128	0x3d76d538	0.060261935
129	0xbe1f201a	-0.1553959
130	0xbc2348a0	-0.009966046
131	0x3decb0d7	0.11557167
132	0x3e38605d	0.1800551
133	0xbdf91ca9	-0.121636696
134	0xbeac8291	-0.33693364
135	0x3e31bc9a	0.17357102
136	0x3d2fa061	0.04287756
137	0xbbd2fcb7	-0.0064388174
138	0xbe76c980	-0.24100304
139	0xbf344e3d	-0.7043188
140	0x3d12c506	0.035832427
141	0xbe0b75e9	-0.13619198
142	0x3d781d2b	0.06057469
143	0xbbcf7561	-0.0063311313
144	0xbea2f484	-0.31827176
145	0xbd7894ff	-0.06068897
146	0xbd2d5896	-0.04232081
147	0x3d9e3efd	0.07726858
148	0xbbae93b7	-0.0053276676
149	0x3d5ceb2e	0.053935222
150	0x3d988199	0.07446594
151	0xbd027612	-0.031850882
152	0x3d1b58c6	0.037926458
153	0x3db26c92	0.087121144
154	0x3da1a0b3	0.07891979
155	0x3d5635e3	0.052297484
156	0xbcdfbe9a	-0.027312566
157	0xbdd56bb3	-0.104209326
158	0xbe845715	-0.25847688
159	0xbdc346bc	-0.09534976
160	0x3cbb41be	0.022858497
161	0xbdb31185	-0.08743576
162	0xbe2bd12c	-0.16779011
163	0x3c6872a3	0.014187488
164	0xbe8379f4	-0.2567898
165	0xbe3d3066	-0.18475494
166	0xbd6d27b2	-0.057899185
167	0xbd7793cb	-0.06044368
168	0x3e5476bf	0.20748423
169	0xbe00e068	-0.12585604
170	0x3c2fc94d	0.010729146
171	0x3e65eccc	0.22453612
172	0x3d8b2cdc	0.067956656
173	0x3b703d18	0.0036657508
174	0xbe1fae89	-0.15593924
175	0xbda371ba	-0.07980676
176	0xbc8e9a14	-0.017407455
177	0x3e2bea6a	0.1678864
178	0x3e470ddf	0.19438885
179	0x3e5973c1	0.21235563
180	0xbd4ba027	-0.04971328
181	0xbdb22ea9	-0.08700306
182	0x3e854612	0.26030022
183	0x3e81a01f	0.25317475
184	0x3c876bfe	0.016530987
185	0x3e8768fc	0.26447284
186	0x3d694878	0.056953877
187	0xbd8083a2	-0.06275107
188	0xbd9bda38	-0.07609981
189	0xbe018199	-0.12647094
190	0x3daf3bad	0.08556304
191	0xbdc069e1	-0.09395195
192	0xbeed35af	-0.4633002
193	0x3d755522	0.059895642
194	0xbd4245f3	-0.04742999
195	0xbd037c8b	-0.032101195
196	0xbe21a040	-0.15783787
197	0xbc11c121	-0.008896143
198	0x3e8f048b	0.27933154
199	0xbd85721a	-0.06515904
200	0x3e656141	0.2240038
201	0xbdb36d88	-0.08761126
202	0x3e072352	0.13197067
203	0x3dd44bc3	0.10366013
204	0x3d0f4eea	0.034987368
205	0x3e41f781	0.18942071
206	0xbd8e0985	-0.069354095
207	0xbe83ac66	-0.25717467
208	0xbe493367	-0.19648515
209	0x3d54778b	0.051871818
210	0x3d920e7e	0.071316704
211	0xbdfaec60	-0.12252116
212	0xbe9bf085	-0.3045694
213	0xbdf6bb38	-0.12047428
214	0xbdccbef0	-0.09997356
215	0xbd9af818	-0.075668514
216	0xbd6cc6ce	-0.057806782
217	0xbd92ea17	-0.07173555
218	0x3c1882bf	0.009308516
219	0xbe9a3817	-0.30120918
220	0xbbca6500	-0.006176591
221	0xbe3b1a98	-0.18271863
222	0xbd120a81	-0.03565455
223	0xbd577a58	-0.05260691
224	0xbe7bcd0c	-0.24589938
225	0x3d842aa3	0.06453445
226	0xbc3c3aa7	-0.011488593
227	0xbda41ba1	-0.08013082
228	0x3d0437c2	0.032279737
229	0x3deeab7c	0.11653802
230	0x3e4ee2b4	0.20203668
231	0x3e00957e	0.12557027
232	0xbd90ec68	-0.07076341
233	0x3e151c9c	0.14561695
234	0x3e124625	0.1428457
235	0xbe1abf68	-0.15112078
236	0xbb44627f	-0.0029965935
237	0x3cb9932f	0.02265319
238	0x3e1c2b19	0.15250815
239	0x3dd8952d	0.10575328
240	0xbea44e88	-0.32091165
241	0xbe951e33	-0.29124603
242	0x3dbf62be	0.093450055
243	0x3e2c3e53	0.1682065
244	0xbc7b61dc	-0.015343156
245	0xbe8cebdd	-0.275237
246	0xbe02db84	-0.12779051
247	0x3d88d823	0.0668185
248	0x3e01f45e	0.12690875
249	0xbde7b739	-0.11314244
250	0x3cc0e024	0.023544379
251	0x3bc622ef	0.006046645
252	0xbc414224	-0.011795554
253	0xbe630787	-0.2217084
254	0xbe196d9b	-0.14983217
255	0x3d6038ff	0.054741856

conv3.bias f4 [16]
0	0x3de23026	0.1104434
1	0xbdef94d5	-0.11698309
2	0x3e0a4b4f	0.1350529
3	0xbe3a7ead	-0.18212385
4	0x3e445284	0.19172102
5	0xbcb8f31f	-0.022576867
6	0x3ba85dcd	0.005138135
7	0x3e0f3fac	0.13989133
8	0xbe1224e9	-0.14271893
9	0x3e866a1e	0.26252836
10	0xbe0b3d5f	-0.1359763
11	0xbda65723	-0.08122089
12	0x3d603c03	0.05474473
13	0xbe45af94	-0.19305259
14	0x3e632166	0.22180709
15	0xbd9effd1	-0.07763637

conv4.weight f4 [16, 16, 2, 2]
0	0xbed6e87c	-0.41974247
1	0xbed16fac	-0.4090551
2	0xbd36681e	-0.044532888
3	0xbe398012	-0.18115261
4	0xbee32c98	-0.4436996
5	0x3bda1228	0.0066549964
6	0x3d846bfe	0.064659104
7	0x3dd7c43f	0.10535478
8	0xbe53e483	-0.20692639
9	0xbee51367	-0.44741365
10	0xbdeec57f	-0.11658763
11	0xbdee1c7d	-0.116265275
12	0x3dd00104	0.10156444
13	0x3e88e487	0.26736853
14	0xbdef12c1	-0.11673499
15	0x3d7065f0	0.058690965
16	0x3db27f03	0.08715632
17	0x3d3d1053	0.046158146
18	0xbe4639be	-0.19357964
19	0xbe00dbf8	-0.12583911
20	0x3e08fcc0	0.13377666
21	0x3e51244d	0.20424004
22	0x3e4282dc	0.18995231
23	0x3e175f1b	0.14782374
24	0x3e7db995	0.24777825
25	0x3e2493c4	0.16071993
26	0xbd76ec61	-0.060284022
27	0xbe7acf68	-0.24493182
28	0x3db4a8d2	0.088212624
29	0x3d44135d	0.04787003
30	0x3d75aeb7	0.059981074
31	0xbc8ead1b	-0.017416527
32	0x3dcf5433	0.101234816
33	0xbbfb64f6	-0.0076719476
34	0xbde43180	-0.11142254
35	0x3d3a0ec9	0.045424256
36	0xbe341095	-0.1758445
37	0xbe4061e5	-0.18787344
38	0x3deea2e2	0.11652161
39	0x3d067725	0.03282847
40	0x3e24b406	0.16084298
41	0x3e25fd11	0.16209818
42	0xbcc38926	-0.023869108
43	0x3dc13dec	0.09435639
44	0xbe4145a6	-0.18874225
45	0xbe384f73	-0.17999057
46	0xbdfd9b96	-0.12383191
47	0xbcc8e563	-0.024523443
48	0xbee92ef0	-0.45543623
49	0xbec12621	-0.37724403
50	0x3e2ac455	0.16676457
51	0x3ed61ace	0.41817325
52	0x3db5e26b	0.088810764
53	0x3e3bc239	0.18335809
54	0x3da63b8a	0.08116825
55	0x3e5053dc	0.2034449
56	0xbeff21ba	-0.4983042
57	0xbeab4de3	-0.3345786
58	0xbe8f6497	-0.2800643
59	0xbb060299	-0.0020448326
60	0x3c862de9	0.016379314
61	0x3e17607d	0.14782901
62	0x3da6dc25	0.08147458
63	0x3e17c545	0.14821346
64	0x3dce638a	0.10077579
65	0xbd82bbc5	-0.063834704
66	0xbe9bf97e	-0.30463785
67	0xbec2dc1d	-0.38058558
68	0x3dec20b8	0.11529678
69	0xbcf1ba02	-0.02950764
70	0xbc92d69b	-0.017924597
71	0xbede4d59	-0.43418387
72	0xbe8de433	-0.27713165
73	0xbe878b1e	-0.26473325
74	0xbf2694eb	-0.6507098
75	0xbedce955	-0.43146768
76	0x3df6db4f	0.120535485
77	0x3e650885	0.22366531
78	0x3e2fd5a6	0.17171344
79	0x3e30f645	0.17281444
80	0xbcedfdc5	-0.02905167
81	0x3bb0209c	0.005374981
82	0xbcd8c44c	-0.02646079
83	0x3e02cd26	0.1277357
84	0xbe55e967	-0.20889817
85	0xbe0c0f5b	-0.13677733
86	0x3e9bf0c1	0.30457118
87	0x3eb4af79	0.35290125
88	0x3d95b2f3	0.073095225
89	0x3d3e78f3	0.046502065
90	0x3dd6ba82	0.10484792
91	0x3ded9710	0.116010785
92	0x3e3e86ad	0.18606062
93	0x3dbe9045	0.09304861
94	0x3e4c021a	0.19922677
95	0x3e24b314	0.16083938
96	0x3ab9eb36	0.0014184478
97	0x3cd9684d	0.026538992
98	0x3e0f3fd2	0.1398919
99	0x3da8b8a5	0.08238343
100	0xbdf04f3f	-0.11733865
101	0xbe731fd7	-0.23742615
102	0xbe138db6	-0.14409527
103	0xbd0ec299	-0.03485355
104	0x3b4daa6e	0.0031382102
105	0x3cdb8324	0.026795931
106	0x3e3a5360	0.18195868
107	0x3cce7d66	0.025206279
108	0xbdc9de8d	-0.09856901
109	0xbe1e9434	-0.15486223
110	0x3c04f19e	0.008114247
111	0xbd3bacad	-0.045818973
112	0x3dcdec43	0.10054829
113	0x3e12fb4d	0.14353676
114	0x3cf9f7c6	0.030513655
115	0xbecc2cb0	-0.39877844
116	0x3de54419	0.11194629
117	0xbe759dd0	-0.23985982
118	0x3d9ba01c	0.07598898
119	0x3b65b87a	0.0035052584
120	0x3d2a5bd9	0.0415915
121	0x3e07ed9c	0.13274235
122	0xbeb63db5	-0.35593954
123	0xbee4df90	-0.44701815
124	0x3d2e46f5	0.04254814
125	0xbe871389	-0.26382092
126	0x3d7138bf	0.058892008
127	0xbbed5885	-0.0072432184
128	0xbea822fa	-0.32839185
129	0xbea025c8	-0.31278825
130	0xbe85256e	-0.2600512
131	0x3d829ed8	0.06377953
132	0x3e83994a	0.25702888
133	0x3bdf606e	0.0068169152
134	0x3d628ca5	0.05530991
135	0xbe109622	-0.14119771
136	0x3d9e8dfb	0.077419244
137	0x3e26f77b	0.16305344
138	0xbdf74698	-0.120740116
139	0xbeb984b6	-0.36234063
140	0x3e2beef5	0.16790374
141	0x3e2f5d91	0.17125537
142	0xbd351cb9	-0.044216845
143	0xbe2afe42	-0.16698554
144	0xbebc413a	-0.36768514
145	0xbe11bfce	-0.14233324
146	0x3d9c1ee9	0.07623083
147	0x3e466ae6	0.19376716
148	0xbd4dc03d	-0.05023216
149	0x3d575ecc	0.05258064
150	0x3cf02482	0.029314283
151	0xbcf7d072	-0.030250762
152	0xbda64b12	-0.08119787
153	0x3d4484a2	0.04797805
154	0x3c2fb1cc	0.010723542
155	0x3dac0aa4	0.08400467
156	0x3d9e0ec7	0.07717662
157	0xbe3f804d	-0.18701287
158	0xbc38a3b2	-0.011269497
159	0xbdfffd22	-0.12499453
160	0xba57d4bd	-0.00082332996
161	0x3e181d7b	0.14854996
162	0x3cd7abd3	0.02632705
163	0xbe60d7d1	-0.21957327
164	0xbdfd5c80	-0.123711586
165	0xbe87c3e4	-0.2651664
166	0xbe4a2512	-0.19740704
167	0xbd234f7c	-0.039870724
168	0x3eb380f0	0.3505931
169	0x3ea4c940	0.32184792
170	0x3d351642	0.04421068
171	0xbda4851b	-0.080332
172	0x3de5ebaa	0.1122659
173	0x3e894666	0.26811522
174	0x3e2301c5	0.15918644
175	0xbdb1ce93	-0.08681979
176	0x3dbd415b	0.09240981
177	0xbd9cd9fe	-0.07658766
178	0xbd86a762	-0.065748945
179	0xbe832348	-0.25612855
180	0x3d0a38d8	0.033745617
181	0xbe5196eb	-0.20467727
182	0x3ca15b55	0.01969687
183	0xbe227e92	-0.15868595
184	0x3cad4f84	0.02115608
185	0xbe2de191	-0.16980578
186	0xbe8104da	-0.25199014
187	0xbe6293a5	-0.22126634
188	0xbd1f7f2b	-0.038939636
189	0xbdb58474	-0.08863154
190	0xbdfa9ea8	-0.122372925
191	0x3c57ba45	0.013166969
192	0x3d6a790a	0.057244338
193	0x3d6e94a3	0.05824722
194	0xbdd29402	-0.102821365
195	0xbe14a981	-0.14517786
196	0x3d0b8ab4	0.034067824
197	0xbd4e420e	-0.050355963
198	0x3da6bf28	0.08141929
199	0xbcd4cea6	-0.025977444
200	0x3cf4700e	0.029838588
201	0xbd435fe4	-0.04769887
202	0xbdbab3d1	-0.091163285
203	0xbe93c0a3	-0.28857908
204	0xbe4dfe0c	-0.20116442
205	0xbee5487e	-0.4478187
206	0xbda07692	-0.078351155
207	0xbe971c2b	-0.29513678
208	0x3ddbc179	0.10730261
209	0xbee17915	-0.4403769
210	0xbe204a74	-0.15653402
211	0xbe1bed13	-0.15227155
212	0xbc64a689	-0.013955721
213	0xbe188e04	-0.14897925
214	0xbd5b0058	-0.053467125
215	0xbea0a4de	-0.31375784
216	0xbe228225	-0.15869959
217	0x3d756bcd	0.05991726
218	0x3e18642d	0.14881964
219	0x3e8e545c	0.27798736
220	0xbdaeae3f	-0.085293286
221	0xbe1ca5b7	-0.1529759
222	0xbdccccd0	-0.100000024
223	0x3d9f8e94	0.077908665
224	0xbc860a9f	-0.016362486
225	0xbe5e8168	-0.21729052
226	0x3e5efb13	0.21775465
227	0x3d4f52ff	0.05061626
228	0x3e8e88ea	0.27838832
229	0x3e64c2c9	0.2233993
230	0x3dc326ec	0.09528908
231	0xbe898907	-0.26862356
232	0xbd9e0f09	-0.077177115
233	0xbcb1a18b	-0.021683475
234	0x3d4336bb	0.047659617
235	0x3d564715	0.052313883
236	0x3e31805b	0.1733412
237	0x39c0e7e9	0.0003679388
238	0xbe33db97	-0.17564236
239	0xbe6cd312	-0.23127392
240	0xbe08467f	-0.13308142
241	0xbc8611ac	-0.016365848
242	0x3e1ec91f	0.15506409
243	0x3e473447	0.19453536
244	0xbdf2bd49	-0.118525095
245	0x3ccbcb67	0.024877263
246	0xbe275bbe	-0.1634359
247	0xbe946c19	-0.28988722
248	0xbe1ac152	-0.15112808
249	0x3de31dd4	0.11089674
250	0x3d7087b0	0.05872315
251	0xbd5aae2b	-0.053388756
252	0x3e4ba7fc	0.198883
253	0x3e22a6a8	0.15883887
254	0xbdae1212	-0.084995404
255	0xbe10d76f	-0.14144681

conv4.bias f4 [16]
0	0xbd30f0ad	-0.043198276
1	0xb9fa95fa	-0.00047795457
2	0x3da2510a	0.07925613
3	0x3d117ec9	0.035521302
4	0xbd54117d	-0.05177449
5	0x3e32a050	0.17443967
6	0x3d9ca5af	0.07648789
7	0xbd9ba186	-0.075991675
8	0xbdab1d85	-0.0835524
9	0x3da013dc	0.07816288
10	0x3d78f0cd	0.06077652
11	0x3ce9e4df	0.028551517
12	0x3e0c0b53	0.13676195
13	0x3e2f670c	0.17129153
14	0x3e4522b7	0.19251524
15	0x3e9ecec2	0.3101712

fc1.weight f4 [120, 256]
0	0x3d9e67a1	0.077346094
1	0x3dc809e5	0.09767512
2	0xbc9aa253	-0.01887623
3	0x3d96f86e	0.07371603
4	0xbe47e4c4	-0.19520861
5	0x3ded0c53	0.11574616
6	0xbdb78865	-0.08961562
7	0x3e6ff37f	0.2343273
8	0x3b85fe3a	0.004089144
9	0xbc92cff7	-0.017921431
10	0x3cac635e	0.021043476
11	0x3d455382	0.048175342
12	0xbe311cb2	-0.17296103
13	0x3d40ea12	0.047098227
14	0x3d8abf2f	0.067747466
15	0xbe9af7ed	-0.30267277
16	0x3e006de8	0.12541926
17	0xbde662b7	-0.11249297
18	0xbecc43c7	-0.3989546
19	0xbdb07660	-0.08616328
20	0xbde7a761	-0.11311222
21	0x3d89c29b	0.06726571
22	0x3d9ac081	0.075562485
23	0x3e991ef4	0.29906428
24	0xbc7f5689	-0.015584596
25	0x3bbb0ed0	0.005708553
26	0x3d35bead	0.044371296
27	0xbda2f15f	-0.07956194
28	0xbe371bcc	-0.17881697
29	0xbe2766c5	-0.16347797
30	0xbe27bdb6	-0.16380963
31	0xbd8c4feb	-0.06851181
32	0x3ef1dc93	0.47238597
33	0x3de0b99d	0.10972903
34	0xbf2d51ba	-0.6770283
35	0xbecb5ae7	-0.3971779
36	0x3cbf839a	0.023378182
37	0xbe1ae977	-0.15128122
38	0xbdda7613	-0.10667052
39	0x3dc845ff	0.09778976
40	0xbe041b9c	-0.12901157
41	0x3d033ca1	0.032040242
42	0x3e1a0fbe	0.15045068
43	0x3e81cef6	0.2535321
44	0xbe91c382	-0.28469473
45	0xbcfc7f5f	-0.030822454
46	0x3e463d41	0.19359304
47	0x3e28380f	0.16427635
48	0xbd99aedf	-0.07504057
49	0xbee75935	-0.45185247
50	0xbe28b78b	-0.16476266
51	0xbe8c6b03	-0.27425393
52	0xbdf55a73	-0.119801424
53	0x3dbfd8dc	0.093675345
54	0x3df88379	0.121344514
55	0x3de1275b	0.109938346
56	0xbe8851df	-0.26624963
57	0xbe5591ec	-0.20856446
58	0xbdd463b4	-0.10370579
59	0x3e296b6e	0.16544887
60	0x3e04e194	0.12976676
61	0x3d4785da	0.048711635
62	0xbcc92642	-0.024554376
63	0x3e06fe4f	0.13182949
64	0x3d934cb4	0.07192364
65	0xbda36614	-0.07978454
66	0x3de3c0e7	0.111207776
67	0xbe8f240b	-0.27957186
68	0xbeb9023d	-0.3613452
69	0xbe131ba1	-0.14366008
70	0x3e10e83b	0.14151089
71	0x3ea02b42	0.31283003
72	0xbe94323e	-0.28944582
73	0x3c4edb00	0.012625456
74	0x3e5f6339	0.21815194
75	0xbd322d70	-0.043500364
76	0xbe0fabf1	-0.14030434
77	0xbc9e11a5	-0.019295523
78	0x3d92744a	0.07151087
79	0xbe37dea5	-0.17956026
80	0xbf1139f8	-0.5672908
81	0xbe51f3ef	-0.2050321
82	0x3eb2b256	0.34901685
83	0x3ea062fa	0.31325513
84	0xbd8b0ea3	-0.06789901
85	0xbd8918c4	-0.06694177
86	0x3c042eb2	0.008067774
87	0xbe7dbaaa	-0.24778238
88	0x3e55478c	0.20828074
89	0xbe422a1e	-0.18961379
90	0xbd6e921e	-0.058244817
91	0xbd6d638a	-0.057956256
92	0x3e5a9c5f	0.21348713
93	0xbc969c07	-0.018384947
94	0x3c3d2579	0.011544579
95	0x3e1041dd	0.14087625
96	0x3ec02f24	0.37535965
97	0xbe90c56c	-0.2827562
98	0xbf32827e	-0.69730365
99	0xbdd86f0c	-0.105680555
100	0x3ddd69fc	0.108112305
101	0xbd807fee	-0.06274401
102	0xbd08612c	-0.033295795
103	0x3e10387a	0.14084044
104	0xbd23986e	-0.03994029
105	0xbdd074c0	-0.10178518
106	0x3daf7f21	0.0856917
107	0xbe23fcfa	-0.16014472
108	0xbe11a3d2	-0.14222649
109	0xbe107054	-0.1410535
110	0x3da3d9b9	0.08000512
111	0x3e1f98a8	0.15585577
112	0xbed97d5d	-0.42478457
113	0xbdfa6598	-0.12226409
114	0x3e2e4bdc	0.17021126
115	0x3d0ca905	0.034340877
116	0xbe9b88ea	-0.30377895
117	0xbe2acee8	-0.16680491
118	0x3dad3da3	0.08459022
119	0x3e019250	0.1265347
120	0xbdcf5161	-0.10122944
121	0xbde101df	-0.10986685
122	0xbc87970c	-0.016551517
123	0x3df6ade3	0.12044885
124	0x3d97f3ff	0.074195854
125	0xbdea0193	-0.114260815
126	0xbe00f1dc	-0.12592262
127	0xbd1d636b	-0.03842489
128	0x3e1d0fc2	0.15338042
129	0xbd10738a	-0.035266437
130	0xbea9eddb	-0.33189282
131	0xbe74b838	-0.23898399
132	0xbe41bb98	-0.18919218
133	0x3d000c6a	0.03126184
134	0x3dddd1fc	0.10831067
135	0xbd6d0d74	-0.057874158
136	0xbd63af8c	-0.055587336
137	0x3e00b5bc	0.12569326
138	0x3d53dafb	0.051722508
139	0x3e4fda43	0.20298104
140	0xbdf6ed3c	-0.120569676
141	0x3de83b29	0.11339409
142	0x3dda7485	0.106667556
143	0x3e1f5b2f	0.15562128
144	0x3e98d705	0.29851547
145	0x3c9054c3	0.017618543
146	0xbdf4449d	-0.119271494
147	0xbe3663a0	-0.17811441
148	0x3e173710	0.14767098
149	0x3df5029c	0.11963388
150	0x3deb9c68	0.115044415
151	0x3d029a96	0.031885706
152	0xbe3567b0	-0.17715335
153	0x3d7f23b8	0.062289923
154	0xbd316d46	-0.043317102
155	0x3da934a6	0.08261995
156	0xbecc0051	-0.3984399
157	0xb9cad0b6	-0.00038683944
158	0x3df0807c	0.117432564
159	0x3dd3b777	0.103377275
160	0x3d9b0e3a	0.07571073
161	0x3dc4d723	0.096113466
162	0xbcdd065b	-0.02698057
163	0xbea2889b	-0.31744847
164	0xbea53e43	-0.32274064
165	0x3db4550c	0.08805284
166	0xbd3cc9ba	-0.04609082
167	0x3e221ff7	0.15832506
168	0xbd503f72	-0.050841756
169	0x3e1d4456	0.153581
170	0x3d655775	0.05599161
171	0x3d90184d	0.07035885
172	0xbe7ec783	-0.24880795
173	0x3d89286c	0.06697163
174	0x3e309f9e	0.17248389
175	0x3da0d0a4	0.07852295
176	0x3e6bfd09	0.23045744
177	0x3cc823e2	0.024431173
178	0xbe529899	-0.20566024
179	0xbe5e66ec	-0.21718949
180	0xbde12e0a	-0.109951094
181	0x3e9962c3	0.29958162
182	0x3e500f0d	0.20318241
183	0x3d62464b	0.055242818
184	0xbe735400	-0.23762512
185	0x3e97a179	0.2961538
186	0xbe35ccbd	-0.17753883
187	0x3d90cdc7	0.07070499
188	0xbcc7ab3b	-0.024373641
189	0x3d091e50	0.033476174
190	0xbe64ae5d	-0.2233214
191	0x3e23eedd	0.16009088
192	0xbe0999f8	-0.1343764
193	0xbeeaa0a9	-0.458257
194	0xbe12b7ff	-0.14328001
195	0xbe19f7fa	-0.15036002
196	0xbc5c1a0d	-0.013433945
197	0x3d6a2a52	0.057169266
198	0xbe821466	-0.25406188
199	0x3cff3933	0.031155204
200	0xbbbd6d6f	-0.0057808678
201	0xbcf3ef85	-0.029777298
202	0xbd45c5ad	-0.04828422
203	0x3e9d30d0	0.30701303
204	0x3daecafa	0.085348085
205	0xbc743d2f	-0.014907165
206	0x3d94fd35	0.07274858
207	0x3d959c11	0.07305158
208	0x3ccbfbe2	0.02490038
209	0x3e785b84	0.2425366
210	0x3e1c5d89	0.15270056
211	0x3e7d09cd	0.2471077
212	0x3e184750	0.14870954
213	0xbcd54c21	-0.026037278
214	0xbd2012c9	-0.039080415
215	0xbd92c9cb	-0.07167395
216	0x3e0dc75b	0.1384558
217	0x3bc41207	0.0059835943
218	0xbd862279	-0.06549544
219	0xbe22bc39	-0.15892114
220	0x3e177b13	0.14793043
221	0xbe1dae25	-0.15398462
222	0x3ea731ce	0.32655185
223	0x3e385a0e	0.18003103
224	0xbe374494	-0.17897254
225	0x3d483b26	0.048884533
226	0x3ebd56bb	0.36980233
227	0x3eb848fd	0.35993186
228	0x3d23dd55	0.040006
229	0x3d2206e4	0.039557353
230	0xbdf36db4	-0.118861586
231	0x3dfc1001	0.1230774
232	0x3e46cbe0	0.1941371
233	0x3e181cfc	0.14854807
234	0x3e330c2e	0.17485115
235	0xbe047229	-0.12934174
236	0x3d28b953	0.041192364
237	0x3e7f8337	0.24952398
238	0xbd81e8ea	-0.06343253
239	0xbdfa40ed	-0.12219415
240	0xbdd7e04d	-0.10540829
241	0xbe2cb8d6	-0.16867384
242	0x3da52e45	0.08065466
243	0x3e0f8fba	0.14019671
244	0xbe78788f	-0.2426474
245	0xbb77a8e0	-0.0037789866
246	0x3de77276	0.113011286
247	0x3a7d5841	0.0009664335
248	0x3e41c3cb	0.18922345
249	0x3d8f14d9	0.06986398
250	0xbda1fb64	-0.07909277
251	0x3e395a4c	0.18100852
252	0x3e598331	0.21241452
253	0x3c0e8784	0.008699302
254	0xbd32249a	-0.043491937
255	0xbd6ed7b1	-0.058311168

fc1.bias f4 [120]
0	0xbc93c50a	-0.018038291
1	0x3d88a722	0.06672503
2	0xbe8fee5b	-0.28111538
3	0xbdefddda	-0.11712237
4	0x3e0bfdb9	0.13671006
5	0x3d8092d7	0.062780075
6	0xbe3437b4	-0.17599374
7	0xbe1a5fec	-0.15075654
8	0x3e4dd1fc	0.20099634
9	0xbd5d0d8b	-0.053967994
10	0xbda5d7a5	-0.080977716
11	0xbae83638	-0.0017716354
12	0xbe4c13fa	-0.19929495
13	0xbcc77ef7	-0.024352534
14	0x3cbfb682	0.023402456
15	0xbdbd46f3	-0.09242048
16	0xbd1a51bd	-0.037675608
17	0x3d834044	0.06408742
18	0xbd7eef92	-0.06224019
19	0xbb9933b0	-0.004675351
20	0x3cae7066	0.02129383
21	0xbe0a632f	-0.13514398
22	0x3dd480cb	0.10376128
23	0xbd8d076c	-0.06886181
24	0xbdeb78dd	-0.11497662
25	0xbe1f8bdd	-0.15580697
26	0xbe27f2b6	-0.1640118
27	0x3dd3a8dc	0.10334942
28	0xbd9dee82	-0.077115074
29	0xbd92b91c	-0.07164213
30	0xbe30ff64	-0.17284924
31	0xbe1d5326	-0.1536375
32	0xbde4820d	-0.11157618
33	0x3d2c6fe0	0.04209888
34	0x3e33c112	0.17554119
35	0xbd943544	-0.07236722
36	0x3de92d76	0.11385624
37	0xbc8d033f	-0.017213462
38	0x3d8876ec	0.066633075
39	0x3c860a00	0.01636219
40	0xbd3846d2	-0.044989415
41	0x3e276e2a	0.16350618
42	0x3ca8b0bb	0.020592084
43	0xbde2f48d	-0.110818006
44	0xbe562d80	-0.20915794
45	0xbdafe2c8	-0.08588177
46	0x3d509f66	0.050933264
47	0xbdd07247	-0.10178047
48	0x3d8d7f8d	0.06909094
49	0xbd447146	-0.04795959
50	0x3ba5e679	0.005062875
51	0x3ca600c1	0.020264031
52	0xbd7e3bba	-0.06206868
53	0x3c75b787	0.01499737
54	0xbd45e6e9	-0.048315916
55	0xbe51e32d	-0.20496817
56	0xbd825283	-0.06363394
57	0xbe55b758	-0.20870721
58	0xbdb728c1	-0.0894332
59	0x3d507074	0.050888494
60	0x3e08b9e6	0.13352165
61	0xbdf2d17d	-0.11856363
62	0x3d500a6a	0.05079118
63	0x3b937666	0.004500198
64	0xbd0ae8ed	-0.03391354
65	0x3c3f1627	0.011662996
66	0x3d575e73	0.05258031
67	0xbd939602	-0.07206346
68	0x3d910d9c	0.07082674
69	0xbdf7c5c4	-0.12098268
70	0xbe953805	-0.29144302
71	0xbb3a6ff7	-0.0028448084
72	0x3de8e44e	0.11371671
73	0xbe2ba8dd	-0.16763635
74	0x3e4ba122	0.19885686
75	0xbde22780	-0.1104269
76	0x3cf968ae	0.030445423
77	0xbc3e7a2c	-0.011625808
78	0xbe53a8d9	-0.20669879
79	0x3dede18b	0.116152845
80	0xbd930b97	-0.07179945
81	0xbdaf3882	-0.085557
82	0x3c9d53f0	0.019205064
83	0x3cd6ed34	0.026236154
84	0xbc08b8ba	-0.0083448235
85	0xbcf35f73	-0.0297086
86	0x3e5f21fe	0.2179031
87	0xbcd617e0	-0.026134431
88	0xbe1a3dcc	-0.15062636
89	0xbe185dc5	-0.1487952
90	0xbdd4d4ae	-0.10392128
91	0xbdd85da5	-0.10564736
92	0x3de3c12c	0.11120829
93	0xbd058ba4	-0.032603875
94	0x3d0ffa3b	0.035150748
95	0xbb92b0f9	-0.004476663
96	0x3e530ddd	0.20610757
97	0x3d667f5e	0.05627381
98	0xbdbb758b	-0.09153279
99	0x3d090947	0.033456113
100	0x3ce24b18	0.027623698
101	0xbd333119	-0.043747995
102	0xbd5b1f83	-0.05349685
103	0xbcb58fcb	-0.022163292
104	0xbe03b783	-0.12862973
105	0x3ca08b73	0.019597745
106	0xbe40e3b5	-0.18836863
107	0xbcd8be91	-0.026458057
108	0xbd375b0e	-0.04476457
109	0xbe45292d	-0.19253989
110	0xbda6ae30	-0.081386924
111	0xbb83f441	-0.00402692
112	0x3d1bfc39	0.038082335
113	0xbda77e7a	-0.0817842
114	0xbe08177d	-0.1329021
115	0xbe38ffe1	-0.1806636
116	0xbe622d53	-0.22087602
117	0xbdd22881	-0.10261632
118	0x39235670	0.00015577092
119	0xbe053b9a	-0.13011017

fc2.weight f4 [84, 120]
0	0xbcedc0e6	-0.029022645
1	0xbe077845	-0.13229473
2	0x3d4a2585	0.049352188
3	0x3cda3327	0.02663572
4	0xbcc15f62	-0.023605052
5	0xbbd11aa3	-0.006381349
6	0xbcfea2ba	-0.031083453
7	0x3cffc6be	0.031222697
8	0x3d18b065	0.037277598
9	0x3e6dabd5	0.2321008
10	0xbdc50a1a	-0.09621067
11	0x3d26040d	0.040531207
12	0xbce4051e	-0.027834471
13	0xbd2d5fe9	-0.042327795
14	0x3e044e2e	0.12920448
15	0xbe9238de	-0.2855901
16	0x3d343b58	0.044001907
17	0x3d404d8b	0.04694895
18	0xb9bd33fc	-0.0003608762
19	0xbcc8a906	-0.02449466
20	0xbe54fa80	-0.20798683
21	0x3def45a3	0.11683204
22	0xbdb4a9c0	-0.0882144
23	0x3db8b2ef	0.09018504
24	0xbe46e515	-0.19423325
25	0x3cb0cb65	0.021581361
26	0x3c528ec0	0.012851417
27	0x3e001b71	0.12510468
28	0xbe33c230	-0.17554545
29	0xbd2652db	-0.04060636
30	0xbd1ddc25	-0.038540024
31	0x3d8cc7d1	0.068740495
32	0xbd67bf53	-0.056578945
33	0xbd0ae776	-0.033912145
34	0xbcd8c33a	-0.026460279
35	0xbb9d69be	-0.004803865
36	0x3d8855af	0.06656968
37	0x3e53c8d2	0.20682076
38	0x3d143a4e	0.036188416
39	0x3c6e98d1	0.014562801
40	0x3cc3b05a	0.023887802
41	0xbe46e8b5	-0.19424708
42	0x3e25364a	0.16133991
43	0xbe599513	-0.21248274
44	0xbd31c9e3	-0.043405425
45	0xbc020577	-0.007935873
46	0xbdaacf33	-0.08340301
47	0xbe0af941	-0.13571645
48	0xbe0b7800	-0.13619995
49	0xbd0f261f	-0.034948464
50	0x3dce24cc	0.10065612
51	0x3e14a350	0.14515424
52	0xbd8f986f	-0.07011496
53	0x3e4ba9ea	0.19889036
54	0xbd24cb5a	-0.040232994
55	0xbc62e08c	-0.013847481
56	0x3b9bdfab	0.004756888
57	0xbdbf973c	-0.093550175
58	0x3c70a36c	0.0146874
59	0x3c9c5166	0.019081783
60	0xbe51e60b	-0.2049791
61	0xbdc10ff8	-0.09426874
62	0x3dd9e9af	0.10640275
63	0x3d6081ec	0.054811403
64	0xbd62b0c6	-0.055344366
65	0x3e9c11f7	0.30482456
66	0x3e78847f	0.24269293
67	0x3cc46fb7	0.023979051
68	0xbe96e141	-0.2946873
69	0x3df3aa54	0.11897722
70	0x3dd7ead5	0.105428375
71	0xbd723c86	-0.05913975
72	0xbe97ef16	-0.29674596
73	0xbdb042f5	-0.08606521
74	0xbdde16e2	-0.10844208
75	0xbddf671b	-0.10908338
76	0x3dc2720c	0.09494409
77	0xbcefc2c5	-0.029267678
78	0x3db75f38	0.089537084
79	0x3e41c766	0.1892372
80	0xbebbbb82	-0.36666495
81	0xbde86e32	-0.11349143
82	0xbd245b9d	-0.04012643
83	0x3d8bc5f5	0.06824867
84	0xbbf920e0	-0.007602796
85	0x3d033a52	0.03203804
86	0xbe9b6274	-0.3034855
87	0xbd4aa4ef	-0.0494737
88	0x3e0888a8	0.1333338
89	0x3d2afdda	0.041745998
90	0xbdf12132	-0.1177391
91	0xbe33e6bf	-0.17568491
92	0xbe7600ca	-0.24023739
93	0x3d6fb3d2	0.0585211
94	0x3d48b5de	0.049001567
95	0x3d43c36c	0.04779379
96	0xbe0c3744	-0.13692957
97	0x3def6ac0	0.11690283
98	0x3e3717ea	0.17880216
99	0xbdd128f8	-0.10212892
100	0x3ddeb57e	0.10874461
101	0xbe9d00f4	-0.3066479
102	0x3cede60a	0.029040355
103	0xbebc59af	-0.36787173
104	0x3dedbc8a	0.116082266
105	0xbe93c7cb	-0.28863367
106	0xbd9fc6ae	-0.07801567
107	0x3e2f7f03	0.17138295
108	0x3c1ac4f0	0.009446368
109	0x3c55c83b	0.013048227
110	0xbd0b39a3	-0.033990514
111	0xbe5dda87	-0.21665393
112	0xbe09a715	-0.13442643
113	0x3dfb88bd	0.1228194
114	0xbe265d07	-0.16246425
115	0x3d51c9e0	0.051217914
116	0x3d4561f7	0.04818913
117	0xbd46ce7e	-0.04853677
118	0x3d88f6a7	0.0668767
119	0xbd06e570	-0.032933652
120	0xbd04d39f	-0.03242838
121	0xbd0034e2	-0.031300433
122	0x3b182450	0.0023215003
123	0x3d54722a	0.051866688
124	0xbdd63d9e	-0.10460971
125	0x3e290ce5	0.16508825
126	0x3d96ce33	0.07363548
127	0x3e69dac9	0.22837366
128	0x3d390a92	0.045176096
129	0xbd02b554	-0.03191121
130	0xbcc4460e	-0.023959186
131	0xbead7ba6	-0.338834
132	0xbe3b121f	-0.18268631
133	0x3cff3327	0.031152321
134	0xbdaa16f1	-0.08305157
135	0xbdc91f52	-0.09820427
136	0xbca9ce71	-0.020728322
137	0x3d76cb7c	0.06025265
138	0xbe0f531f	-0.13996552
139	0xbd8b9c52	-0.06816925
140	0x3e2b8d74	0.16753179
141	0x3cb0d3ed	0.02158543
142	0x3cda8a97	0.026677413
143	0x3dd36b0d	0.10323153
144	0xbdbdf6ac	-0.092755646
145	0x3e3d34d8	0.1847719
146	0x3d9bbf7e	0.076048836
147	0xbcc927bd	-0.024555082
148	0x3e18a970	0.14908385
149	0x3e9a6719	0.30156782
150	0x3de28269	0.1106003
151	0xbe0d1ef8	-0.13781345
152	0x3d16da90	0.03682953
153	0x3e21109e	0.15728995
154	0xbda32877	-0.079667024
155	0xbe22279d	-0.15835424
156	0x3d72c82e	0.059272937
157	0xbdb70d73	-0.08938112
158	0xbe86d3af	-0.26333377
159	0x3c851b2a	0.016248304
160	0x3cbae434	0.022813894
161	0x3dc12106	0.09430127
162	0x3d94c12b	0.07263406
163	0x3dde92ce	0.108678445
164	0x3d715f41	0.05892873
165	0x3d4dfa72	0.05028767
166	0xbd8a69ca	-0.06758459
167	0x3b8d2927	0.0043078843
168	0xbd365646	-0.04451587
169	0xbcf23426	-0.029565882
170	0xbc111b2c	-0.008856576
171	0xbd586826	-0.0528337
172	0xbd334c0a	-0.04377369
173	0x3e0a8618	0.13527715
174	0x3c6c60d0	0.014427379
175	0x3e5feed4	0.2186845
176	0xbcbc031e	-0.022950705
177	0x3d70522b	0.05867211
178	0xbd5ea9c4	-0.05436112
179	0x3db41f04	0.08794978
180	0xbd81c046	-0.063355014
181	0xbda0b582	-0.0784712
182	0xbe150546	-0.14552793
183	0xbe33cfd7	-0.17559753
184	0xbd342a54	-0.04398568
185	0xbe2a7557	-0.16646324
186	0xbc756046	-0.014976567
187	0xbdf3d23f	-0.11905336
188	0x3e13bc63	0.14427333
189	0xbbd183cb	-0.006393885
190	0x3e4dbd1f	0.20091675
191	0x3d394755	0.045234043
192	0x3e88db64	0.26729882
193	0x3cbb4441	0.022859694
194	0x3e1105a8	0.14162314
195	0x3c99c974	0.018772818
196	0xbca57aa4	-0.020200081
197	0xbe4435c5	-0.19161136
198	0xbe04cfeb	-0.1296994
199	0x3e759804	0.2398377
200	0x3d2c7ed0	0.042113125
201	0x3d7e3d74	0.062070325
202	0xbc35f1ae	-0.011104984
203	0xbeeba420	-0.46023655
204	0xbe09239a	-0.13392487
205	0xbcb095c9	-0.021555798
206	0x3e870897	0.2637374
207	0xbe2997fd	-0.16561885
208	0x3e1858c5	0.14877613
209	0x3e3d2d45	0.184743
210	0x3cf7ef91	0.030265601
211	0x3d81a533	0.063303374
212	0x3d4fdd99	0.05074844
213	0x39a7c6a3	0.00032000718
214	0x3deea232	0.1165203
215	0x3d4c8c0e	0.049938254
216	0x3e289f3c	0.16466993
217	0x3e0f99ec	0.1402356
218	0xbdb43452	-0.08799042
219	0xbda24a8a	-0.079243734
220	0xbd9badda	-0.07601519
221	0x3e4cab46	0.1998721
222	0xbe31d46b	-0.17366187
223	0x3ebcdaa4	0.3688556
224	0x3dcfdeb3	0.101498984
225	0xbc956a95	-0.018239299
226	0xbd3dc439	-0.04632971
227	0xbe2d8314	-0.16944534
228	0x3ebdadea	0.37046748
229	0xbd1832fe	-0.037158005
230	0xbd4da270	-0.05020374
231	0x3dcd4bf2	0.10024251
232	0x3db92d8a	0.09041889
233	0x3d8ed4ef	0.069742076
234	0xbee782dc	-0.45217025
235	0x3e42d975	0.19028266
236	0x3e94433e	0.28957552
237	0x3dec737e	0.11545466
238	0xbd2c1a89	-0.042017493
239	0x3e0849f5	0.13309462
240	0x3e234057	0.15942512
241	0x3c85b11d	0.016319806
242	0x3d810162	0.06299092
243	0xbc9bfc18	-0.019041106
244	0xbecdfe3b	-0.40233025
245	0x3e2cf151	0.1688893
246	0x3e382768	0.17983782
247	0x3b65b719	0.0035051762
248	0xbe66abd9	-0.22526492
249	0x3e227816	0.15866122
250	0x3e3243e1	0.17408706
251	0x3b1e9d88	0.0024202783
252	0xbe16965b	-0.14705794
253	0xbbc7f7a2	-0.006102518
254	0xbcd5a596	-0.026079934
255	0x3dd47545	0.1037393

fc2.bias f4 [84]
0	0xbd0062cc	-0.03134422
1	0x3d36f8f9	0.044671033
2	0xbd4a06f6	-0.049323045
3	0xbda9332a	-0.08261712
4	0x3e598efa	0.21245947
5	0x3d8e93ad	0.06961761
6	0xbd9c4520	-0.07630372
7	0xbd89a6ca	-0.067212656
8	0x3dd876d2	0.10569538
9	0x3dbf75bf	0.0934863
10	0xbd6415d7	-0.05568489
11	0xbc3fdae2	-0.011709901
12	0x3dfbfd1d	0.12304137
13	0x3dce0bd7	0.10060852
14	0xbd91102c	-0.07083163
15	0x3e1d31fc	0.15351099
16	0x3d126dfc	0.03574942
17	0xbcf2dbde	-0.029645856
18	0xbe432107	-0.19055568
19	0x3e60de69	0.21959843
20	0xbda4e418	-0.08051318
21	0x3e3332a5	0.17499788
22	0xbcfa0711	-0.030520948
23	0x3d081370	0.033221662
24	0xbe2083d3	-0.15675287
25	0x3d3c8667	0.046026614
26	0xbe01a638	-0.12661064
27	0x3e0d5b64	0.13804394
28	0x3e2913d7	0.16511475
29	0x3cc0da8d	0.023541713
30	0xbc39667f	-0.011315941
31	0xbd7b67a9	-0.061378155
32	0x3d25b832	0.040458865
33	0xbdbfc113	-0.09362998
34	0xbdc48552	-0.09595741
35	0xbd958f04	-0.07302669
36	0x3db47089	0.08810527
37	0x3dc6d8ce	0.09709321
38	0xbdec285b	-0.11531135
39	0xbdf0d014	-0.11758438
40	0x3d750fcc	0.05982952
41	0xbd8f625f	-0.07001185
42	0xbd5f96ab	-0.054587048
43	0x3cb21f3b	0.021743407
44	0x3d8e405d	0.0694587
45	0x3b1134dd	0.0022156753
46	0xbe39e91d	-0.18155332
47	0xbdf27586	-0.11838822
48	0x3de9e8c1	0.114213474
49	0x3e0d59d8	0.13803804
50	0xbc971ea2	-0.018447224
51	0x3cae3c89	0.0212691
52	0xbe54971d	-0.2076077
53	0xbdaab3cb	-0.08335074
54	0xbe29b6d5	-0.16573651
55	0xbd1a494a	-0.03766755
56	0xbda59260	-0.080845594
57	0x3db75cae	0.08953224
58	0xbdfb844d	-0.12281094
59	0x3d834e97	0.06411474
60	0x3e25a555	0.1617635
61	0xbd8ac0da	-0.06775065
62	0xbc740795	-0.014894386
63	0x3d1890c0	0.03724742
64	0x3c53cf71	0.012927876
65	0x3e7be459	0.24598826
66	0xbe27c7f8	-0.16384876
67	0x3db45368	0.08804971
68	0x3e2058fb	0.15658943
69	0x3da40842	0.080093876
70	0xbdd58779	-0.1042623
71	0x3d81b2d8	0.0633294
72	0x3dbc04ee	0.09180628
73	0x3e949a53	0.2902399
74	0xbd1c4b0c	-0.038157508
75	0xbe16d834	-0.14730912
76	0x3d31a335	0.043368537
77	0x3b56bb0f	0.0032765304
78	0xbcb42e2f	-0.021994678
79	0xbd90ac55	-0.0706412
80	0x3d3cbc96	0.046078287
81	0xbe26fa6f	-0.1630647
82	0x3e159c95	0.14610513
83	0xbd8dca4a	-0.06923349

fc3.weight f4 [10, 84]
0	0xbe20923b	-0.15680782
1	0xbe085dac	-0.13316983
2	0x3b54001b	0.0032348696
3	0xbc06ff95	-0.008239646
4	0xbe425e5b	-0.18981306
5	0xbdc7a6f6	-0.09748642
6	0xbe94fbc0	-0.2909832
7	0xbe8f4e9c	-0.27989662
8	0xbec28b2e	-0.3799681
9	0xbe2b5ae6	-0.16733894
10	0xbea4ab53	-0.3216196
11	0x3e1026bc	0.14077276
12	0xbda49c98	-0.080376804
13	0xbea6d21d	-0.3258218
14	0xbdba63d7	-0.09101074
15	0xbec6dd8b	-0.388409
16	0xbe99e760	-0.30059338
17	0x3dcab954	0.0989863
18	0x3d20586b	0.039146822
19	0x3df7be8a	0.12096889
20	0x3cd15cec	0.025557004
21	0xbe919fde	-0.2844228
22	0x3d6829b1	0.056680385
23	0x3e0cecef	0.13762258
24	0xbe7e88a7	-0.24856816
25	0xbe30a73f	-0.172513
26	0xbe2d1c86	-0.16905412
27	0xbe72d971	-0.2371576
28	0xbe3bfb3b	-0.18357556
29	0xbf27f9fe	-0.6561583
30	0xbe4ff4b9	-0.20308198
31	0x3cc4ba9c	0.024014764
32	0x3e5fb3e8	0.21845973
33	0x3d57d00b	0.05268864
34	0xbdc77726	-0.09739523
35	0xbef439d0	-0.47700357
36	0xbea70c8f	-0.3262677
37	0xbe39e9f0	-0.18155646
38	0x3d3f456f	0.046697076
39	0xbe5d7f08	-0.2163049
40	0x3e1fa8b6	0.15591702
41	0x3d0c3268	0.03422776
42	0x3b8ea7f0	0.004353516
43	0xbe97879c	-0.2959565
44	0xbcb62578	-0.022234663
45	0x3e0615e1	0.13094284
46	0xbcfd491d	-0.030918652
47	0x3da0e53c	0.07856223
48	0x3d864fa9	0.06558163
49	0xbd853a74	-0.0650529
50	0x3d6a83cc	0.057254598
51	0x3e12ce41	0.14336492
52	0xbcaede28	-0.021346167
53	0xbf113d39	-0.56734043
54	0xbe80358c	-0.25040853
55	0xbf1ea68b	-0.61972874
56	0xbe578857	-0.21048103
57	0xbebe2365	-0.3713638
58	0xbda0d535	-0.07853166
59	0xbcc279fd	-0.02373981
60	0xbec7109e	-0.38879865
61	0xbe10f053	-0.14154176
62	0xbc29f265	-0.010372733
63	0xbf2f1d67	-0.6840424
64	0xbeca57ba	-0.39520055
65	0xbed347c1	-0.4126568
66	0xbf027402	-0.50958264
67	0xbee84398	-0.4536407
68	0xbebdab5f	-0.37044808
69	0xbe3955f1	-0.1809919
70	0xbb8d418f	-0.0043107937
71	0xbe6a23a7	-0.22865163
72	0xbdb25969	-0.0870846
73	0xbd9d7969	-0.07689173
74	0xbecaf56a	-0.3964036
75	0xbdd935b7	-0.106059484
76	0xbf011e19	-0.5043655
77	0x3dc2c146	0.0950952
78	0xbe8582e9	-0.2607644
79	0xbd9fd54b	-0.07804354
80	0x3e30af88	0.1725446
81	0x3df255f3	0.118328
82	0x3d3018c2	0.04299236
83	0xbe846068	-0.25854802
84	0xbd97f891	-0.07420457
85	0x3d77b844	0.060478464
86	0xbf002bb1	-0.5006667
87	0xbd60c6d2	-0.05487711
88	0x3bd8b9b6	0.0066139353
89	0xbe350a37	-0.17679678
90	0xbefef2eb	-0.49794707
91	0xbcece954	-0.028919853
92	0x3da7cc6c	0.08193287
93	0x3dd51e1e	0.10406135
94	0xb980ad9b	-0.0002454341
95	0xbdbf78bb	-0.093491994
96	0x3e058962	0.13040689
97	0xbdc68dcd	-0.09695015
98	0xbdc95ee4	-0.09832552
99	0x3e3df60f	0.18550895
100	0x3d2eebfb	0.042705517
101	0x3c8475d8	0.016169474
102	0xbed18cb2	-0.40927655
103	0x3e007609	0.12545027
104	0xbeaee5c2	-0.34159666
105	0x3d8c94ff	0.06864356
106	0xbecd61e3	-0.40113744
107	0xbe9b3830	-0.30316305
108	0xbe9db457	-0.3080165
109	0xbe853353	-0.2601572
110	0x3d0ce838	0.03440115
111	0x3c0ed17b	0.008716936
112	0x3dd2c7d9	0.10292024
113	0xbe2f5959	-0.17123927
114	0xbe82fbb8	-0.2558267
115	0xbd581565	-0.05275478
116	0xbe5f1695	-0.21785958
117	0xbedaa082	-0.42700583
118	0xbf04002c	-0.5156276
119	0xbe9ac4b8	-0.3022821
120	0xbdbf62b0	-0.09344995
121	0x3dcd07c1	0.100112446
122	0xbef19d78	-0.47190452
123	0xbe815f1e	-0.2526788
124	0xbd077f99	-0.03308067
125	0xbed77a54	-0.42085516
126	0xbeeae80e	-0.4588017
127	0xbe3c255f	-0.18373631
128	0xbee06fde	-0.43835348
129	0xbef47879	-0.47748163
130	0x3c95cd42	0.018286351
131	0xbd48df99	-0.049041364
132	0x3e0a6064	0.13513333
133	0xbe433b70	-0.19065642
134	0x3d705a85	0.058680076
135	0x3db16a9c	0.08662912
136	0xbcfc050b	-0.030764123
137	0xbd99a29d	-0.07501719
138	0xbe7d5a40	-0.24741459
139	0x3e58e98d	0.21182843
140	0xbdc16560	-0.09443164
141	0x3e3963a1	0.18104412
142	0xbe90d64b	-0.28288493
143	0xbd890ce0	-0.06691909
144	0x3e20c023	0.15698294
145	0xbeeef98b	-0.4667476
146	0xbeba5bc5	-0.3639814
147	0xbf3601a3	-0.7109625
148	0xbe54800e	-0.20751974
149	0x3d747ad5	0.059687454
150	0xbee5747c	-0.44815433
151	0x3d52998f	0.051415976
152	0x3e28d6fd	0.16488262
153	0xbe79d794	-0.24398643
154	0xbe08fa88	-0.1337682
155	0xbe918ad1	-0.2842622
156	0xbf0f62bb	-0.56010026
157	0x3e5121c8	0.20423043
158	0x3db1fb60	0.08690524
159	0xbaf4c403	-0.0018674139
160	0x3ddd3e73	0.10802927
161	0xbecf630e	-0.4050526
162	0xbeb750f9	-0.35803965
163	0x3cbb7f4d	0.02288785
164	0xbeecc013	-0.4624029
165	0xbe7f59ff	-0.24936675
166	0x3dd69d16	0.104791805
167	0xbeb68bc1	-0.356535
168	0xbd33bfbe	-0.04388403
169	0xbe324134	-0.17407686
170	0xbe28c642	-0.1648188
171	0xbcae0173	-0.021240925
172	0xbe51043c	-0.20411772
173	0xbee1d763	-0.4410964
174	0xbea730e2	-0.32654482
175	0xbe247405	-0.16059883
176	0xbe8d537b	-0.27602753
177	0xbde27254	-0.110569626
178	0x3e42a8a7	0.19009648
179	0xbed7e528	-0.4216702
180	0x3dd34022	0.10314967
181	0x3e2320fd	0.15930553
182	0xbb96041c	-0.0045781266
183	0xbd833b41	-0.06407786
184	0xbea25195	-0.31702867
185	0x3ccdd17b	0.025124302
186	0xbd054d80	-0.032544613
187	0xbe925062	-0.28576952
188	0xbf21451e	-0.6299609
189	0xbe4209a7	-0.18948995
190	0x3d4a221b	0.04934893
191	0xbe8e6ee7	-0.27818987
192	0xbe561fa5	-0.20910509
193	0xbd8f77e9	-0.07005293
194	0xbebb4063	-0.3657256
195	0x3d4c6307	0.049899127
196	0xbea857d0	-0.32879496
197	0xbef1a565	-0.471965
198	0xbda53678	-0.0806703
199	0x3d028628	0.031866223
200	0xbd62d6bc	-0.055380568
201	0xbee8da76	-0.45479172
202	0xbeb65d4b	-0.35618052
203	0x3de83621	0.11338449
204	0xbe6f251d	-0.23354001
205	0xbb8359b2	-0.0040084952
206	0xbe420650	-0.1894772
207	0xbeb459eb	-0.35224852
208	0xbe9e3d84	-0.30906308
209	0xbe629da2	-0.22130445
210	0x3bbeac35	0.0058188685
211	0x3df7d0ef	0.12100398
212	0x3da7dac4	0.08196023
213	0xbe8f58cb	-0.2799743
214	0xbe468f2d	-0.19390555
215	0xbe121227	-0.14264737
216	0x3d45a972	0.0482573
217	0x3df8027a	0.12109847
218	0x3dd8953c	0.10575339
219	0xbef49f68	-0.47777867
220	0x3d8ab9d5	0.06773726
221	0xbeee54fb	-0.4654921
222	0x3c451986	0.012030011
223	0xbdddcdb3	-0.1083025
224	0xbe2b395c	-0.167211
225	0x3bfdddc9	0.007747386
226	0xbddcd7ab	-0.10783323
227	0x3da2daa5	0.079518594
228	0xbd8e610d	-0.06952105
229	0x3d6abb7a	0.057307698
230	0x3dbe316a	0.09286769
231	0xbeb372e9	-0.35048607
232	0xbe6044fd	-0.21901317
233	0xbd64d85a	-0.05587039
234	0xbe525a37	-0.20542227
235	0xbaf63cdd	-0.0018786449
236	0xbf0fd630	-0.561862
237	0x3de28143	0.11059811
238	0x3e1c3f39	0.15258493
239	0xbd58fb92	-0.05297429
240	0xbd249c04	-0.04018785
241	0xbf0bb0fa	-0.5456692
242	0xbe323361	-0.17402412
243	0xbe8d70d7	-0.27625152
244	0xbe222653	-0.15834932
245	0x3e5155a4	0.20442826
246	0x3b0de905	0.0021653783
247	0xbcd9cd49	-0.026587145
248	0xbddb4d81	-0.10708142
249	0xbdd95ece	-0.10613786
250	0x3b0dd991	0.0021644572
251	0xbe8d970c	-0.27654302
252	0x3ca8f259	0.020623373
253	0xbf000794	-0.50011563
254	0x3d8ccdce	0.06875192
255	0xbad25d81	-0.0016049595

fc3.bias f4 [10]
0	0x3d814ec2	0.0631385
1	0x3e486e11	0.19573237
2	0xbdfec354	-0.124396
3	0x3da389aa	0.07985242
4	0xbae6983b	-0.0017592976
5	0xbe437677	-0.1908816
6	0xbdf7a915	-0.12092797
7	0xbce69c3e	-0.028150674
8	0x3e2a985a	0.1665968
9	0xbcbf358d	-0.023340965
